Rover_02_01.onnx (onnx, 284981 bytes, 7 tensors)

network_body._body_endoder.seq_layers.0.weight f4 [256, 14]
00000000: 1427 17bc 40c3 35be 7431 af3e 2ee3 613d
00000010: 7ee2 a23e 2a90 5cbf 2b60 0f3f 66de debd
00000020: b0f8 6cbe 1c42 a8be 2899 1ebe a04b a4be
00000030: 15d9 07be 6760 8b3e a95d 65bd 5c33 42bd
00000040: ae83 2b3e d544 54be 0c96 ea3e adfc 9cbe
00000050: 8023 c73d 6c52 9bbd 5d04 f5bb a891 4fbe
00000060: 7d88 ba3d e1fb bcbe 3b0d 2c3e 877a b5be
00000070: 5a00 aabd 8059 1cbc f935 d6bd a4af 793e
00000080: 27be 6a3e 7999 d4bd cb82 b7bd 68f3 9b3e
00000090: ee90 a43e be88 dcbd 96cc 953d 8a5d 1abe
000000a0: fd0a b1be 9277 243e 97f8 86bd 9e8f 1f3e
000000b0: 4afa 463e 5507 2f3e 2015 bf3e 81f7 4a3d
000000c0: 1ac5 1d3f 19dc a53e 2cdd 5dbd 470a 5dbe
000000d0: e073 1cbc 98e1 9bbd a939 c1bc 3f6f e7be
000000e0: b2cc 01bf b612 08be 9ffd 9a3e 35b8 1f3f
000000f0: 1288 8ebe e3fa 7ebe 8676 a73e 99dc f4be
00000100: a2ea d83d e88e f73d b0ba 3fbd 73a5 d13e
00000110: 0e8e dbbe d77c 903d 9994 05be 7f3a cabd
00000120: 3c33 68be 8028 6cbd 3e6c 073e 731e 8ebe
00000130: 36c5 043f 6686 83be bc90 6e3d f01d 9f3e
00000140: 41cf 4a3e bb1a 4cbd 27eb 0e3d 35bd f2be
00000150: f019 2dbe 3085 99bc bd86 183e 3fe7 473e
00000160: a07a b6bd dfca fcbe 0986 3a3e 2be0 8e3e
00000170: 447b 91bd 436d b23d 5206 053e b189 74bd
00000180: 766a dabe 9203 0cbe 36f9 c7be 6e96 96bd
00000190: 996c 053f f39f 4dbe defb 0c3e a95c beb9
000001a0: 7761 ad3e 201a d4be 5d84 9ebc 7716 61be
000001b0: b6dd 6dbc 4068 6abe 0a37 21be 5565 60bd
000001c0: 1ac9 c1bd 0780 85bf 4e63 26bc 53ce ec3e
000001d0: 4293 bebc b17d 8ebe a9e3 ad3e 0270 aabe
000001e0: 7628 643e e80b a53d 1497 8cbe 784e aabe
000001f0: f875 53be 382d b4be 1891 11bc c041 93bc
00000200: c42d 1abf 6aec db3e fd12 76bc 3435 043d
00000210: 15b5 003f 5af0 fbbb 379e b83d 3d2d b2bd
00000220: e42c dabe f4f0 4d3d 5d27 bb3e 93b6 9dbe
00000230: 9398 fb3e 8169 9abe d776 99be 9e29 b33e
00000240: f781 2bbc b334 583f c2af 19be 9f72 cd3e
00000250: 8827 7dbd 411d 7abd 89b5 ab3e bfc5 d23e
00000260: 70cc c3bd e5eb 78be 79fa ae3e f8bd a53d
00000270: e0a3 5bbd 9204 b4bd 80d1 27bd 0128 a33d
00000280: 979c 41be 5e63 3a3e 7a62 6fbe 4545 78be
00000290: d6cd 503c 3137 4a3d b4c1 fb3d 8d0e 573e
000002a0: 8d9f e03e 8043 1a3e d11d 143e afa5 ae3e
000002b0: fc59 7a3c 61ca 2c3e ba0f debe ca6c 07bf
000002c0: 18e8 e33e f446 a83d 7bf3 ddbd e791 b5be
000002d0: 6b6e 94bd 0320 e13e 35f5 853e 243f 87be
000002e0: 586d 01bd 2f68 acbd 3996 4cbe 2f15 2c3d
000002f0: c39f 8dbe 34ff 71be 7bc8 8a3d 9c8b 403c
00000300: 226c 8c3e d9aa 9ebe 058c 393d 259b fcbd
00000310: d324 0dbf a436 d43e 263a 13be 91a8 7c3d
00000320: e51f beba e438 77be ebd0 77be d45c 85bd
00000330: 5ac3 623d 26ce fbbd 564d 59bd 9261 583e
00000340: 9296 943e 52cd 69be 4b2d 60be 31bf 1ebe
00000350: ab2f 3e3d a176 7c3e 1f77 c33e 8747 993e
00000360: fc83 0c3e 753a 41be 77fa ebbe f8df 953e
00000370: 4fb6 ba3d eca3 d0be 1124 f5bd cb6f ccbc
00000380: 2184 433e 1ad7 2abe cb2d c23e 2221 a73d
00000390: 10e5 023f efc9 e9be 7079 b3bd 8638 573e
000003a0: c08b 0abe 28f3 adbe 106b 873d d570 843d
000003b0: 4482 b23d 3c22 71be f75f f3be 9057 a73e
000003c0: 3b52 bdbe 9767 bfbd fa30 1fbe 0a2e 0d3f
000003d0: e543 19be df80 d1be 2e41 203e 4d27 a23e
000003e0: 9feb 973e 15db 96bd 0524 cb3d 2ae2 8b3e
000003f0: ccc0 bcbd 54b7 9bbc 1490 b23b 71cf b5be
-0.009225626 -0.17750263 0.34217417 0.055148296 0.31813425 -0.86157477 0.56006116 -0.10882263
-0.23141742 -0.32862937 -0.15488112 -0.32088947 -0.13266404 0.27221987 -0.055997524 -0.04741226
0.1674945 -0.20729382 0.45817602 -0.30661526 0.09723568 -0.0758408 -0.007477327 -0.20270407
0.09108064 -0.36910918 0.16801922 -0.35445043 -0.08300848 -0.009542823 -0.10459513 0.24383408
0.229241 -0.10380835 -0.08960494 0.30459142 0.32141823 -0.10768269 0.07314412 -0.15074745
-0.34578696 0.16061237 -0.065903835 0.1558213 0.19431415 0.1709264 0.37320805 0.049552444
0.6162888 0.32394484 -0.054166004 -0.21585952 -0.009549111 -0.07611388 -0.023587065 -0.45202062
-0.50702965 -0.13288388 0.30271623 0.6239045 -0.27838188 -0.24900393 0.32707614 -0.47824553
0.10591628 0.12087804 -0.0468089 0.4094654 -0.42881817 0.07055061 -0.13044967 -0.098744385
-0.22675794 -0.05765581 0.13224885 -0.27757606 0.5186342 -0.25688475 0.0582435 0.31077528
0.19805624 -0.04983018 0.034892228 -0.47409979 -0.16904426 -0.018740267 0.14895149 0.19521807
-0.089101076 -0.49373528 0.18215193 0.27905402 -0.07103589 0.08712246 0.12990692 -0.059701625
-0.42659348 -0.13673237 -0.3905732 -0.07352911 0.5211883 -0.20080547 0.13767955 -0.0003630866
0.33863422 -0.41426182 -0.019350225 -0.21981226 -0.014518192 -0.2289133 -0.15743652 -0.054784138
-0.09462185 -1.0429696 -0.010155512 0.46251163 -0.023263577 -0.2783027 0.33962753 -0.3328858
0.2228106 0.080589116 -0.27459013 -0.33262992 -0.2065047 -0.3519075 -0.008884691 -0.017975688
-0.6022608 0.42953807 -0.015019176 0.0322773 0.5027631 -0.0076885642 0.09014552 -0.08700035
-0.42612374 0.05027862 0.3655347 -0.30803356 0.49139842 -0.30158618 -0.2997348 0.3499269
-0.010467998 0.8445541 -0.15008453 0.4012651 -0.061805278 -0.061063055 0.33536938 0.41166493
-0.09560478 -0.24308737 0.3417547 0.08092874 -0.05362308 -0.08789934 -0.04097128 0.079666145
-0.1890739 0.18201968 -0.2337741 -0.24245174 0.012744388 0.04936904 0.12292805 0.21001644
0.43871728 0.15064812 0.14464499 0.34110782 0.015280243 0.16874076 -0.43371373 -0.52900374
0.4451301 0.08216658 -0.10837456 -0.35462877 -0.07247623 0.43969736 0.2616364 -0.2641536
-0.03159842 -0.08418309 -0.1997918 0.04201239 -0.2766095 -0.23632509 0.0677652 0.0117520355
0.2742625 -0.3098972 0.04529955 -0.12334279 -0.55134314 0.41447937 -0.1437765 0.061684195
-0.0014505355 -0.24142796 -0.2420079 -0.06511846 0.055362083 -0.12295179 -0.05305227 0.2113097
0.29021126 -0.2283223 -0.21892278 -0.15502621 0.04643218 0.24654628 0.3817682 0.29937384
0.13722223 -0.18869956 -0.46089527 0.29272437 0.09116804 -0.40750062 -0.1196977 -0.02495565
0.19093372 -0.16683617 0.37925562 0.081606165 0.5113077 -0.45661876 -0.08763397 0.21017656
-0.13529873 -0.33974576 0.066122174 0.064668335 0.087162524 -0.23548216 -0.47534153 0.32683992
-0.369768 -0.0934593 -0.15546027 0.55148375 -0.14967306 -0.40918633 0.15649864 0.3167061
0.29671952 -0.07366005 0.099189796 0.27320987 -0.092164606 -0.019008316 0.0054493044 -0.35509828

network_body._body_endoder.seq_layers.0.bias f4 [256]
00000000: bcbf 10bd 73b2 2233 98a1 54bd fa59 b6bd
00000010: 42db c2bd 7e79 3e33 13c7 5dbc 55bd 23bd
00000020: 8a79 9437 67d0 973d 0bfa 813d 6f10 27bd
00000030: af61 423c 6d84 8aaf 803b 733d 718c 423b
00000040: 98f0 603d b0b5 1abb d2f8 3ebd 1a71 b7bd
00000050: 4c37 64bd 2b97 663c d8b0 69bd 52d1 1a31
00000060: ec0c b4bc 23a3 87bd 68af b1bd 8094 27b4
00000070: 1300 42bd 5f07 c7bb e810 cf3c 7742 16ba
00000080: 55f8 15bd 946d 5bbd c9af 10bd 4bbb 943c
00000090: d3f1 c33d e33a 45bd 9f32 4f33 d36e 5abd
000000a0: 09c7 a4aa 7011 c1bd f9df 9abd c87a 82bd
000000b0: 1d5a d2bd 37a6 13bd ac61 16bc d33b 84bd
000000c0: 47d6 e6bc 6845 9abd 0b1f 7ebd abc7 e0bc
000000d0: 8330 d33c 05ee 9abd 95ee d123 8109 25ad
000000e0: d57c a83c 7409 ad3d c0d6 bebd 0d5a 85bd
000000f0: 8bd9 e3bc d7c2 aebd 64ea d7b2 7b67 163d
00000100: e2d4 18bc 75d0 55bd 90e7 25bd a7e8 1c3d
00000110: 9e19 553d 0ee9 a3bc 0425 7034 a68a ef3c
00000120: 226b ae3d 4f72 d3ad 6f46 43bb d733 2a3d
00000130: 6489 b13b 752b d5bd 8362 ea3b d582 d0bd
00000140: 92f6 a33d 3296 5bbd 78d9 693c 6d2d 5c3c
00000150: 9f95 dfbc 14cb 40bb f505 2fbc f44b 7c3d
00000160: 7ad1 10bc 2adb b1bd 3fd2 863c 6d48 9b3c
00000170: b87d 4abd 27fd af3d d4dc 4a3b 5e27 8cbd
00000180: bdab ccbd 0921 f13c 16e9 84bd 78f0 f0bc
00000190: 2589 b0bc f43b 073c d02e c5bb 5313 d33c
000001a0: 8ee3 14be b6da b4bc b270 1b3d 9046 bfb8
000001b0: f082 193d 673f f03d 1403 39bd 1a70 7a3d
000001c0: 8c15 15bd eaf2 edbc fe1e ccbb 6e4b 08bd
000001d0: fb92 1cbd e022 aabd fb17 18bd c555 50bd
000001e0: 9596 eabc 25a4 5bbd d010 cdbc 422a 5bbd
000001f0: cc6b c8bd abd9 07bd 93f9 c4bc cad0 403d
00000200: 2783 efbd ed44 1abe 8bad 3a3c 0b21 b5bd
00000210: c029 dbbd 0e9d 8bbd ad84 8c3c a739 07bd
00000220: 02a5 d8bc 09e4 81bd 170a 99bd 0253 9fbd
00000230: d71d 02bd 3842 92b8 c98a 34b5 6c98 9cbc
00000240: fb41 3eb9 1ebf bbbb 2523 3bbc bb77 75bd
00000250: 1c87 1abd 8e99 bbbd 1f02 a83c 1d22 2e3c
00000260: 4288 63bd 256b 66bd a5e4 ac35 cd35 4eb9
00000270: 062c dabd f048 6fbd 8253 10bd decf ddbc
00000280: ca4c 41b8 b81a 6f2b d00c 3ebd 5049 d43d
00000290: 1807 7d3c a37e b5bc 59eb 43bd 6c36 e53c
000002a0: f846 f73d ba7f e8bc 87c5 1e3d 189a adba
000002b0: d947 b4bd 6aab 28bd 558e 94bd 2d2b ebbc
000002c0: 40d1 aebd f9f9 bcbd cd93 bebd 9b93 aa3d
000002d0: bb39 d03c 14ff 9a3c 0b48 723d 3d26 0dbe
000002e0: 0a2c 0e3d e707 24b9 0920 a2bd 36ef fcaf
000002f0: 9482 38bd e0a5 66bd 4f2c 873c 5702 d6bb
00000300: 94c0 a0bd c15f 033d 1b58 46ba 5224 12bd
00000310: 7671 b4bd f1c7 0cbd 5620 b4b4 9126 9cbd
00000320: d972 85bd 8697 9dbd 7ab3 8cbd b21a 60bd
00000330: bf1d 56bd df3e 243c 333a a1bd b97f 72b9
00000340: abe3 07be 29fe 93bd fcac 6dbd 55c1 19bd
00000350: 3dd0 53bd 8568 d0bd 4211 acbc 87b9 36be
00000360: a057 3fbd df2c febc 9237 1dbb 43e9 fe21
00000370: 444d c1b6 5c54 c6bd b296 a43c a089 4632
00000380: 4cf5 f93c d784 9fbd 8925 a9bd 6374 3a3d
00000390: 93c2 7fbc d9cc d2bc 08fb e0bc 0839 913c
000003a0: 2224 203d 80c7 64bd 9ddc 28bd 396f 20bb
000003b0: b5d3 99bd 7a0b 32bd bdd0 ba3c acfa beb6
000003c0: 55b2 56bd 4ff1 55b6 9c0e a5bc 7bdd 19a2
000003d0: c292 f3bc d543 dabd 4741 ba3c fabb 15b3
000003e0: 2932 afbd 7fd6 9b3b 1981 17be 9fbf 18bb
000003f0: b461 a934 8800 de3c 653b b7bc ce86 43b8
-0.035339102 3.7880863e-08 -0.05191192 -0.089038804 -0.09514476 4.434832e-08 -0.0135362325 -0.039975483
1.769957e-05 0.074127965 0.0634652 -0.040787157 0.01186411 -2.5196148e-10 0.059382915 0.002968576
0.054916948 -0.002360683 -0.046624012 -0.08957119 -0.055716798 0.014074127 -0.057053417 2.2528934e-09
-0.021978818 -0.06622913 -0.08676034 -1.5607111e-07 -0.047363352 -0.0060738767 0.025276616 -0.000573195
-0.03661378 -0.0535713 -0.03532389 0.018155714 0.09567609 -0.048151862 4.8241983e-08 -0.053328346
-2.927036e-13 -0.09427154 -0.07562251 -0.06371075 -0.10271094 -0.036047187 -0.00917856 -0.06456723
-0.028178347 -0.075327694 -0.062041324 -0.02743896 0.025779968 -0.0756493 2.2760869e-17 -9.381274e-12
0.020567337 0.08449069 -0.09318304 -0.065113164 -0.027813694 -0.085332565 -2.5135883e-08 0.03671978
-0.009328099 -0.052200753 -0.04050404 0.038307812 0.052026384 -0.02000859 2.2365208e-07 0.029240917
0.08516528 -2.4038686e-11 -0.002979662 0.041553345 0.0054179896 -0.104086794 0.007152857 -0.10181204
0.08006014 -0.053610034 0.01427304 0.013438565 -0.027293025 -0.002941792 -0.010682573 0.061595872
-0.008839006 -0.0868438 0.016457675 0.018955434 -0.0494363 0.08593207 0.0030954378 -0.06843446
-0.09993694 0.029434698 -0.0648977 -0.02941154 -0.02154977 0.00825404 -0.0060175434 0.02576605
-0.1453993 -0.022076946 0.03794927 -9.120733e-05 0.037478387 0.11730843 -0.04516895 0.061142065
-0.0363975 -0.029046495 -0.0062292805 -0.03327506 -0.03822611 -0.08307433 -0.037132245 -0.050863046
-0.028636256 -0.053623337 -0.02503243 -0.053507097 -0.097861856 -0.03316657 -0.024044788 0.047074117
-0.11694937 -0.15065356 0.011393915 -0.08844193 -0.107013226 -0.06817065 0.017153108 -0.033013966
-0.02644587 -0.063423224 -0.074726276 -0.07779504 -0.03176674 -6.974157e-05 -6.7257184e-07 -0.01911565
-0.00018144392 -0.00572957 -0.011421953 -0.059928637 -0.037726507 -0.091601476 0.020508824 0.01062825
-0.055549867 -0.056254525 1.2881543e-06 -0.00019665733 -0.10652928 -0.058419168 -0.03523589 -0.027076658
-4.60863e-05 8.4946937e-13 -0.046398938 0.10365546 0.015443586 -0.022155112 -0.047831867 0.027980052
0.12074083 -0.028381217 0.038762596 -0.0013244776 -0.08802766 -0.0411791 -0.0725371 -0.028707111
-0.08536005 -0.09227366 -0.093055345 0.08328935 0.025418153 0.018920459 0.059150737 -0.13784118
0.034709968 -0.00015643203 -0.079162665 -4.6008503e-10 -0.045046404 -0.056310534 0.01650062 -0.0065310406
-0.07849231 0.03207374 -0.00075662293 -0.03567917 -0.088107035 -0.034370366 -3.355114e-07 -0.076245435
-0.06516046 -0.076949164 -0.0687017 -0.05471296 -0.05227446 0.010024755 -0.07872429 -0.00023126499
-0.13270442 -0.072262116 -0.0580263 -0.03753789 -0.051712263 -0.101761855 -0.021004323 -0.1784421
-0.046714425 -0.031027256 -0.0023989421 1.7273453e-18 -5.760843e-06 -0.09684059 0.020091388 1.1556409e-08
0.030512474 -0.07789009 -0.082591124 0.04552115 -0.015610355 -0.025732445 -0.027463451 0.01772739
0.03909696 -0.05585432 -0.04122602 -0.0024480356 -0.07511083 -0.043467976 0.022804612 -5.6916233e-06
-0.052416164 -3.1879933e-06 -0.020148568 -2.0852617e-18 -0.029733066 -0.10657469 0.022736205 -3.486273e-08
-0.08554489 0.0047557945 -0.1479534 -0.0023307574 3.154979e-07 0.027099863 -0.022367189 -4.661717e-05

network_body._body_endoder.seq_layers.2.weight f4 [256, 256]
00000000: 7e47 9bbd 1ce8 393e 101a 2c3e 6888 41bd
00000010: 1b6d d93c a00f a03d 6f19 403d 9f41 2c3d
00000020: 3e51 583d 11f7 a2bd 76a6 8f3d 5097 debd
00000030: 2f48 e73c a34e da3c 3d43 36bd 0256 cd3d
00000040: 52b7 1c3d 3747 33bc 482e 72bd cb54 f03a
00000050: 0a73 46bd 2e93 c7ba 61c9 f1bc d6a3 843d
00000060: 31d2 0bbd f491 6a3d 4215 3fbe 0965 e53d
00000070: aaea 86bc 6128 09bd a4a9 153d 2879 1bbd
00000080: b32a fc3c d2dc 013d 6261 273d 8fc3 563d
00000090: af16 323d 56b5 2fbd ac37 8ebb 07fc f2bc
000000a0: c777 a4bd 241e 08be 84e4 5ebd 9a67 e73c
000000b0: 8eeb 2dbe 62a6 e8bd b721 5f3d 8077 8abd
000000c0: c710 5b3c 15f7 203c beae 7a3d 3d11 8bbd
000000d0: a021 4a3e b929 003d 78db 9339 c077 3ebd
000000e0: 3f84 12bc 9faa c6bc 0cf7 033d 6896 a63d
000000f0: f058 2d3d bdb9 fd3b 874a a33d 4421 9f3c
00000100: d3c3 273d 757c a5bc 947f 363d a999 fdbc
00000110: 15e0 893d 3cdb 30ba c079 ec3d 64ad 1f3d
00000120: a71a 88bd 5904 b7bc 6741 5b3c 1ede 7d3c
00000130: d48c cc3d 1eb8 0fbd 46f6 083e e587 81bd
00000140: 6767 fe3b 1b71 e83c 84c9 ddbb bfb7 e73c
00000150: 72b2 5f3d 62ef 96bd 72ca 913a e89e abbd
00000160: 25a9 f8bb ffca 0dbe 487a 94bd 5886 29bd
00000170: 9211 6d3d 3095 64bd aef1 c93b 254c fcbc
00000180: 2ebe 83bc 5dac 48bd ed1e 46bc 6e65 6fbd
00000190: 63b6 01bd 03fc 9abd b3fc 8dbd 6507 c2bc
000001a0: 1123 78bd 1b00 efbd 01a6 c6bd 3666 b7bc
000001b0: 92a6 1fbc d99e 963d 16d7 89bd a00c 503c
000001c0: 21c5 32bb 34fb c5b9 d32c 06be 4df2 e5bd
000001d0: 0361 423d 4b10 0d3a 5ce5 023d 553e 72bc
000001e0: 77e3 b53d 71ca 203d 90cd e5bd 9173 81bb
000001f0: 6be1 433d 6eb4 cbbd 048f 4bbc 4c51 c8bb
00000200: a25e b1bd 44a1 7b3d fe31 1bbd 0a68 e03b
00000210: cf1b 9aba 3434 8cbd aae8 53bc c5e9 2f3c
00000220: 507d 2b3c 5682 86bc 7560 173b 1e77 bd3d
00000230: 3145 cdbd 85da 973d a9ec ae3c 1d42 323c
00000240: 8460 a1bd 8340 f13c e8d8 debb 2ec2 36bd
00000250: 2cca a8bd 48a4 58bd 66b0 b7bd fd50 873d
00000260: f338 95bd 7708 843d 9d39 5e3c 2e40 53bc
00000270: 2d99 663c eff0 943d c58b f1bc 43c9 37bd
00000280: f3c0 1ebd b9fd b3bc 17f2 b1bd 8f91 12bd
00000290: f024 fcbd d789 e1b9 cd57 05ba 471c 53bc
000002a0: 5111 ac3d 6c8e 8bbc 112c 473d 6a05 373d
000002b0: b06b 66bc df2c 82bd 12ef 28bd 2fb2 3dbd
000002c0: 2b58 43bc 50f4 efbc dd3c 8dbc 05eb 9a3d
000002d0: 5a7f 453c 92e8 273d 8eba baba 1452 0ebe
000002e0: 8eea 893a 21a8 74bb c286 48bc 7d77 ccbd
000002f0: 6148 09bd a61c 23bb 5276 c43d 0cea cb3d
00000300: 316a 86bd 05f9 b43c 7716 43bc 53aa ca3b
00000310: b389 87bd fe9b 85bd eb8a 63bc ab30 263c
00000320: 85fa 203b 1a91 69bd 729b 76bd 651c 26bb
00000330: 1440 183e 7d70 b7bc b4e5 2bbd ceff 5fbd
00000340: a31e 2fbd 61d0 dfbd 2741 aabd af1d 26bd
00000350: 5556 08be 8eb1 943d e2d5 d23d 180d c0bc
00000360: cd2b e13d 0d36 423d e47b b63d 721b 50bd
00000370: c5cb ff3c e2d9 01be 2461 503c 7e09 c2bd
00000380: c861 783b 5dd9 72bd a168 523d c195 9fbd
00000390: cde7 dabd 8ade 823d 2ddc 80bd cd80 07bc
000003a0: 1c73 9c3a 4d39 ca3c b014 08bd 4e9f 643c
000003b0: b8bb 2fbc 4d97 273c b61f dbba aea7 ddbd
000003c0: 8738 b03c d158 66bc 28f2 b33d d824 833d
000003d0: 4936 d03d c1a8 0dbd f3d0 003e 0201 8639
000003e0: a9dd 2ebd e0d0 aabd 4033 dfbd 5c60 9d3b
000003f0: f2b4 0c3c 8180 85bd baef 8bbd a1d2 78ba
-0.075819954 0.18154949 0.16806817 -0.047249228 0.026541283 0.0781548 0.046899255 0.04205477
0.052811854 -0.079572804 0.07014172 -0.10868704 0.028232662 0.026648825 -0.044497717 0.1002617
0.038260765 -0.010942272 -0.05912617 0.0018335817 -0.048449554 -0.0015226358 -0.02951497 0.06476562
-0.034136 0.057268098 -0.18660453 0.112009116 -0.016469318 -0.033485774 0.036538735 -0.03795734
0.03078208 0.03170473 0.040864356 0.052432593 0.043478664 -0.042897545 -0.0043401327 -0.029661192
-0.08030658 -0.13292748 -0.05441715 0.028247643 -0.16984388 -0.1135986 0.054475512 -0.06761074
0.013370699 0.009824534 0.061201803 -0.06790397 0.1973939 0.03128979 0.00028201542 -0.04650092
-0.008942663 -0.02425128 0.032218024 0.081341565 0.042321146 0.007743089 0.07973199 0.019425042
0.040958237 -0.020200947 0.04455526 -0.03095706 0.067321934 -0.00067465357 0.115466595 0.038983718
-0.066457085 -0.02234094 0.013382292 0.015494851 0.09987798 -0.035087697 0.13375196 -0.06324748
0.0077637914 0.028374245 -0.0067684073 0.02828586 0.054613538 -0.073698774 0.0011122955 -0.08379918
-0.007588523 -0.13846968 -0.07249886 -0.041387886 0.057878084 -0.05580634 0.0061628437 -0.030798027
-0.016081896 -0.048992503 -0.012092334 -0.05844634 -0.03166808 -0.07567599 -0.06932964 -0.023685167
-0.060580317 -0.11669942 -0.096996315 -0.022387605 -0.009744303 0.073545165 -0.067304775 0.012698323
-0.0027278143 -0.0003776193 -0.13103037 -0.11227856 0.0474558 0.0005381151 0.031957015 -0.014785369
0.08881276 0.039255563 -0.112208486 -0.003950544 0.047822397 -0.099465236 -0.012424234 -0.006113207
-0.08660628 0.06143309 -0.037889473 0.00684834 -0.0011757555 -0.068458945 -0.012933889 0.010736887
0.010466889 -0.01641957 0.0023098264 0.092512354 -0.10022963 0.07414726 0.021353083 0.01088002
-0.07879737 0.029449707 -0.0068007596 -0.044618778 -0.08241686 -0.052891046 -0.08969192 0.06607244
-0.07286253 0.06446927 0.013563541 -0.01289372 0.014074606 0.07272517 -0.029485593 -0.044869673
-0.03875823 -0.02197157 -0.08688753 -0.035783347 -0.12311733 -0.00043018043 -0.00050866307 -0.01288516
0.0840174 -0.017035685 0.04862601 0.044682898 -0.014063761 -0.06356215 -0.04124362 -0.046312507
-0.011922876 -0.029291302 -0.017240936 0.07564358 0.012054289 0.04099328 -0.0014246271 -0.13898498
0.0010522173 -0.0037331658 -0.01223916 -0.09983728 -0.03351629 -0.0024888902 0.0959288 0.0995675
-0.06563223 0.022091398 -0.0119072115 0.006184855 -0.06618061 -0.06523894 -0.013888101 0.010143439
0.0024563384 -0.057023145 -0.060206838 -0.0025346514 0.14868194 -0.022392506 -0.04196711 -0.054687314
-0.042753827 -0.10928417 -0.08313208 -0.040555652 -0.13314183 0.07260428 0.10294701 -0.023443744
0.109946825 0.047414828 0.08910349 -0.050807424 0.031225095 -0.12680772 0.012718473 -0.09474467
0.003790008 -0.059289325 0.051369313 -0.07792235 -0.10688744 0.06390102 -0.06291995 -0.008270455
0.0011936161 0.024685526 -0.033222854 0.013953997 -0.010725908 0.010228944 -0.0016717825 -0.10822998
0.02151133 -0.014059261 0.08786422 0.06403512 0.10166604 -0.034584764 0.12579708 0.00025559223
-0.04269186 -0.08340621 -0.10898447 0.0048027467 0.008588063 -0.06518651 -0.068328336 -0.00094918354

network_body._body_endoder.seq_layers.2.bias f4 [256]
00000000: 9aa5 2ebc 3925 febc b3d4 b0bc 7d63 84bc
00000010: c2a6 6fbc 953d 4dbc dcc5 5fbc 8c94 6dbc
00000020: 35e6 6abc 8b16 4dbb 388c cfbc 2c5e 22ba
00000030: 2903 c3bc 7106 13bd 0ff7 38bc d048 10bc
00000040: f484 b9bc a02a 38bc 86cd e6bc 0c42 bfbb
00000050: e831 17bc 65fa 69ba 8aa9 2dbc 0ca6 9abc
00000060: 2f27 d8bb 33f2 a6bc 00d5 c8bc 7ebe 80bc
00000070: 03ec 85bc 775b df39 a692 eabc 861a 0ebc
00000080: 6a40 92bc 4994 fbbc 7a40 31bc c580 9bbc
00000090: 7577 8fbc 15b6 d7bc 5e3c eabc bf73 51bc
000000a0: 2096 82bc 7bd0 c9bc ea3c ccbc 7871 4bbc
000000b0: 1f36 9dbc 056e 92bc e857 77bc 911e 89bc
000000c0: e1e2 8dbb 0c18 60bc efc3 58bc 61d0 d6bc
000000d0: 6fc0 90bb 8eae 11bc b686 c4bc 079e f5bc
000000e0: a817 14bd d70e 89bc b30a abbc f5b4 f5bc
000000f0: 52e4 c6bc 78b6 9dbb 315b 4bbc abdf bbbc
00000100: 07c3 f8bc 33a6 e4bc 46e7 8e3b 4dc5 8bbc
00000110: d74d 86bc 2e22 61b9 6c2a 0abc 9cec 99bc
00000120: adc3 83bc 4bd3 35bc e509 45bc f986 61bc
00000130: 7ac6 2ebc a063 4dbc 13fb b7bc c8a0 a7bc
00000140: 8ad8 c4bc 0df4 f3bc 478d 1cbc dbbf 6ebc
00000150: aafe 0bbd ba0e 55bc c3bf 76bc 87f4 d2bc
00000160: 45e9 27bb d874 94bc 87d4 aebc d343 a1bc
00000170: 71bd 7cbc 0d83 01bc ffd2 24bd 2186 05b7
00000180: eb39 82bc a9d9 10b4 3c3b 80bc f355 babc
00000190: b350 b8ba 9b98 d8bc 7256 b83a 5506 68bc
000001a0: d03b 3dbc 0887 85bc 5693 92bc 9b56 9ebc
000001b0: fab0 0fbc 4fb8 ceb9 bc3a 09bc ab32 b0bc
000001c0: c833 45bc 3f59 24ba ffc4 9fbc bd7c a8bc
000001d0: 4a51 97b9 9b56 65bc 42e9 37bc 80b3 f5bc
000001e0: 56ee f7bc 0468 40bc ec77 e1bb 29d2 1ebc
000001f0: 994a 0cbc 2869 86bc 60a9 4b3b d98a 02bc
00000200: 78b9 76bc f521 b5bb a204 cfbc 5fdd 70bc
00000210: 921c 8abc f69b d4bc e966 f7bc fa6c c6bc
00000220: 728d 94bc 0e0c 90bc d3bb cbbb 346e c4bc
00000230: b84c 95bc 7f71 84bc 618a 12ba 9973 34bc
00000240: 0ba7 c7bc de92 12bc fc0c 14bc b3e5 96bc
00000250: 52db bfbc 2916 bcbc 1c30 9eba d4c4 afbc
00000260: 45d2 7dbb c244 bbbc 7b67 1bbd d5c2 bfbc
00000270: b06a 38bd 5515 8dbc fe4b 45bc adce c7bc
00000280: 14ec fbbb 35f8 14bc e44c 8bbc 04de cfbc
00000290: 405b 36bc 7087 03bc 4697 7fbc 86b9 6bbc
000002a0: d43b 04bc 8104 d0bc cd9f d9bc 740a ddb8
000002b0: b3d8 1abc cd64 b7bc dda4 42bc 225c 72bc
000002c0: 4df1 c9bc 7871 afbb 2d60 97bc a9ec f5b9
000002d0: aeab 68bc 06c3 92bc 0856 d2bc 8968 81bc
000002e0: 10ba 9bbc 20d2 9fbc 06cb 91bc dfc3 c7bc
000002f0: 19a7 9abb 33d6 b8bc 9204 81b9 c651 9fbc
00000300: 47ea 94bc 3981 bfbc bed9 d1bc 1c77 82bc
00000310: 7079 a6bb 4211 b8bc 9109 bdbc 3661 eabc
00000320: 4a28 9bbc c347 1bbc 07bc b2bc ffea a1bc
00000330: 5021 f2bc dc21 e6bb 629b 4dbc d36f d8bb
00000340: 433d 8cbc a84b 70bc 6225 28bc d4a1 0dbd
00000350: 46da c0bc cb64 f2bc c98e a3bc 5b43 b0bc
00000360: 6e36 2ebc e0f6 14bc 2965 42bc 3129 62bc
00000370: acaa 40bc bbd9 0cbc f79d 81bc 8b10 63bc
00000380: 2bc9 cbb9 4ba3 52bb 7d63 92bc fb0b 9cbc
00000390: 81ff f8b8 b256 fbba f308 1fbc b6a0 87bc
000003a0: 4a6b 08bc bbc2 4ebc a5ea 49bc a172 4bbc
000003b0: 240a 72bb a5c5 a7bc 1263 baba e621 8dbc
000003c0: 9281 04bd e98c babb 5281 4cbc 8387 22bc
000003d0: 23e3 afbc 48f3 dcbc bb79 dfbc 2212 b9bc
000003e0: 9e70 b2b9 cb03 e9bb f988 b4bc ab2f 70bc
000003f0: 137a e7bb a9c5 cabc 8374 95bc 9108 56bc
-0.0106596 -0.031023609 -0.021585798 -0.016160721 -0.0146271605 -0.012526889 -0.013658013 -0.014500748
-0.014337112 -0.0031293954 -0.025335416 -0.0006193842 -0.023805218 -0.035894815 -0.011289372 -0.008806422
-0.022646405 -0.011240631 -0.028174173 -0.005836731 -0.009228207 -0.00089255563 -0.010599503 -0.018878005
-0.006596468 -0.020379161 -0.024515629 -0.015715834 -0.01634789 0.0004260202 -0.02863438 -0.008673316
-0.01785298 -0.030710356 -0.010818595 -0.0189823 -0.017513016 -0.02633194 -0.028593238 -0.012783944
-0.015940726 -0.024635544 -0.02493139 -0.01241719 -0.019190846 -0.017874727 -0.015096642 -0.016738208
-0.0043300246 -0.013677608 -0.013230308 -0.02622241 -0.004417471 -0.008891715 -0.023990016 -0.02998258
-0.036155373 -0.016730709 -0.020879125 -0.029993514 -0.024278793 -0.0048130117 -0.012411878 -0.022933802
-0.030366434 -0.027911281 0.004361066 -0.017061854 -0.016394539 -0.00021470405 -0.008432966 -0.018789582
-0.016084516 -0.011097739 -0.012026285 -0.01376509 -0.010667438 -0.0125359595 -0.022458589 -0.020462409
-0.024029035 -0.029779458 -0.0095551675 -0.014572109 -0.034178413 -0.013003999 -0.015060368 -0.025751365
-0.0025621217 -0.018122122 -0.021341575 -0.019685661 -0.015426026 -0.00790478 -0.040240284 -7.958647e-06
-0.015896758 -1.349023e-07 -0.015653245 -0.022746062 -0.0014062136 -0.026439955 0.0014063849 -0.014161666
-0.011549905 -0.01629974 -0.01789252 -0.019328406 -0.008770222 -0.00039428702 -0.00837582 -0.021508535
-0.012036271 -0.0006269402 -0.019503115 -0.020567292 -0.0002886153 -0.013997699 -0.011225047 -0.029992819
-0.030265015 -0.011743549 -0.006880751 -0.009693661 -0.008562707 -0.016407564 0.0031076297 -0.007967674
-0.015058868 -0.0055277296 -0.025270764 -0.0147012165 -0.016859327 -0.025953274 -0.030200439 -0.024221886
-0.018133853 -0.017583873 -0.0062174588 -0.02397833 -0.018225059 -0.0161674 -0.0005590078 -0.011013889
-0.024371644 -0.008946149 -0.009036299 -0.018420076 -0.02342001 -0.022959786 -0.0012068781 -0.02145616
-0.0038730067 -0.022859935 -0.037940484 -0.023408333 -0.04502362 -0.017222086 -0.012042044 -0.024390543
-0.007688055 -0.00909238 -0.017004438 -0.02537442 -0.011130154 -0.008027896 -0.015600031 -0.014387494
-0.008070905 -0.025392773 -0.026565457 -0.00010540048 -0.009451079 -0.022386933 -0.011880127 -0.014792474
-0.024651194 -0.0053541027 -0.018478477 -0.00046906367 -0.014201088 -0.01791526 -0.025675789 -0.015796917
-0.01900962 -0.019509375 -0.017797004 -0.02438539 -0.0047196266 -0.022563076 -0.00024608203 -0.019448172
-0.018178118 -0.023377048 -0.025616523 -0.015925936 -0.0050803944 -0.022469167 -0.02307585 -0.028610807
-0.01894011 -0.009477559 -0.021818174 -0.019765375 -0.0295569 -0.0070230793 -0.012549253 -0.0066051274
-0.017119056 -0.014666475 -0.010262819 -0.03457816 -0.02354158 -0.029589077 -0.019965546 -0.021516493
-0.010633094 -0.009092063 -0.011864939 -0.013803766 -0.011759441 -0.008596833 -0.015822394 -0.013858925
-0.0003886906 -0.0032140787 -0.017869705 -0.019048681 -0.00011873153 -0.0019175617 -0.0097067235 -0.016556125
-0.008326361 -0.01261967 -0.01232401 -0.012417466 -0.0036932314 -0.020479986 -0.0014220199 -0.017228078
-0.03235013 -0.0056930673 -0.012482004 -0.009920004 -0.021470612 -0.026971474 -0.027279725 -0.022591654
-0.00034034712 -0.007111048 -0.02203797 -0.014659802 -0.007064113 -0.024752455 -0.018244034 -0.013063566

action_model._continuous_distribution.log_sigma f4 [1, 2]
00000000: 2d8c c4bf 91e8 c0bf
-1.5355278 -1.5070974

action_model._continuous_distribution.mu.weight f4 [2, 256]
00000000: e064 a23c 77cb 333c 8203 c73c bd7a 583c
00000010: ebcd ae3c a9bc 373c bb44 77bb 88d6 01bb
00000020: 42fa f1bc ff63 db3b 18dc 34bd c329 9f3b
00000030: 009b e7bc 643f 263c a913 833c 31a0 f83a
00000040: e6f0 0f3d 066e 76bc 0e9b b5bc 5072 6fbc
00000050: a49b a4ba 6ed7 3f3b 17d8 393d faa3 7abc
00000060: 655d f9bb a690 c8bb 460a 15bc 115a 15bd
00000070: 4d8d c4bb cc20 b13c 84f8 27ba 5b6f dabc
00000080: 5663 d2bb 355b 02bd cd23 0c3b 8309 40bd
00000090: e864 e1bc aee4 abbb abe0 a2bb 1770 0fbb
000000a0: 71c9 513c 0d25 78bc 5f7e 3cbc 5626 26bc
000000b0: f5ed a73b 0571 e43b 0f4b e7bb 92f8 f5ba
000000c0: 0272 ba3b 39aa a1bb 0a6b 963a bc41 adbb
000000d0: 7f45 1dba 1bea 86ba 57db aebc e6a8 653b
000000e0: 190f 333b a3dd fcb9 4b60 92bb 918b 413c
000000f0: 038d c9bc ff82 29bc 6046 943c d53b b4bb
00000100: 92e5 023d 15cf fbbb 367c 3fbc c757 91bb
00000110: 576b 3f3b 83dd d6bb dc22 1f3c 5183 cdbc
00000120: ff85 563c 22f5 83bb 43ca e93c 273b a3bb
00000130: 7909 123b 7535 5d3b 3b66 5b3c 227a 02bd
00000140: 95b7 8e3c 392d 323c e89b edba 61b6 d83a
00000150: 0184 bfbc 9e4b 3abc acd4 eabb 04d4 5bbc
00000160: c2c9 7e3c 2fc7 75bc 005c d13c ca01 f33b
00000170: 6852 8f3a 51f0 a8bb 30ea 80bc f5ad 0cbc
00000180: 7775 c53b 5464 0bbc 1c7d cf3c c001 3abb
00000190: 13d1 03bb be65 84bb 9631 973d 9d9a b0bc
000001a0: bb4e cc3b e45a 14bb 8568 f5bb 54ae 963b
000001b0: a4b2 94b9 4f9b 6fbb 6482 e6bb 23ed adbb
000001c0: 6624 3dbc fc8d a7bd abc7 cbba f1c1 80bc
000001d0: dac4 023d de5b 3cbc d72d d03c 574c 363c
000001e0: d29b 043d ccb4 81bb 3be1 c5bb a769 7cb7
000001f0: a560 3abc 2eec 9d3c 9d9a c3bc 8a0f ab3a
00000200: 2b23 e73b e6ed 9dbc 3f17 973c d140 5fbc
00000210: 22d0 013d 4e53 ca3b ab65 9fbc 5778 19bc
00000220: 16e1 a6ba 78a6 ddbb e58d 3abc e48d 83bc
00000230: 2519 bdbb c859 50bc 6f2b 033c d42b 9dbc
00000240: 3188 78bb 919b 183c 26b8 5abc 11f8 26bd
00000250: 6de7 1cbd 534d b8bb 8bc4 5abc 8e5c a53a
00000260: 2967 0b3b b849 42bb 6e7b 79bc 3910 95bc
00000270: 4ab1 c0bc 1b95 4cbc 84a2 a8bb 6cee 273c
00000280: c8d3 fe3b 33f8 cfbb bcba edbb 56fc 05bc
00000290: 043b 6d3c daf5 713c cac8 b53b a9a8 f73c
000002a0: b88d 143a 4939 32bc acfc 663c 0731 98bb
000002b0: 7d53 66ba 2bef ae3b 285f b3bc ebba 543b
000002c0: fade 66bb f1e1 bfbc c859 093c e775 253d
000002d0: 45b1 1ebc 4f18 8c3c e207 20bb 5234 8b3a
000002e0: 1987 a7bc 52e7 ccb9 f9bd d33b a032 603b
000002f0: 60f2 dd3a e362 dfb9 b9fc 6cbc cdce 8e3c
00000300: f4dd 1e3c 6000 473c 9101 9a3c 99a5 333c
00000310: bfc6 863b 661f 6c3c 7034 6c3b 91de b73c
00000320: 085e 32bc 0e5b 423b 6244 3a3b 668e 3b3b
00000330: 304e 4c3b a9a6 6fbc 6736 b1bb 8f41 29bb
00000340: 0f50 54bc bed8 31bb 1f3d 17bc 5802 22bc
00000350: 919c 62bc b365 9bbb 20c0 9e3c 8866 81ba
00000360: 94d3 36bc a3f1 b23c 3d4a 8bb8 c07f cbbb
00000370: 0278 2d3c 462b cf3b cad1 1c3d 67da e93b
00000380: 99b8 603c ad73 10bc b17f 5f3c 315c 193a
00000390: fbdf 163b 757e 26bc 85f4 97bb fc6c 183d
000003a0: 36d6 413c 15fa 76bc e305 043c cec3 613c
000003b0: 168b 393c fd89 1439 d38b 263c dafa 1fbc
000003c0: dc56 fcbc 141b 1cbc 88f6 cfb9 38ae 1abc
000003d0: 1a5d 7bbc a01f 41bd d246 b5bb af72 40bc
000003e0: e1df c13a 8c41 80b9 57d8 463b 76be f43a
000003f0: da52 1b3c b77b 1b3c 4aac f73a bdc2 3dbc
0.019823492 0.010973803 0.024293665 0.013212857 0.021338424 0.011214414 -0.0037730176 -0.0019811708
-0.029538278 0.00669527 -0.04415521 0.0048572733 -0.028272152 0.010146949 0.016000586 0.0018968639
0.035141848 -0.01504088 -0.022168662 -0.014614657 -0.0012558592 0.0029272693 0.045372095 -0.015297884
-0.0076100104 -0.006120759 -0.009096688 -0.036462847 -0.0059982897 0.021622084 -0.0006407576 -0.026664427
-0.006420533 -0.031825263 0.0021383644 -0.04688407 -0.027513936 -0.0052457666 -0.00497063 -0.002188688
0.012804375 -0.015145552 -0.011504739 -0.010140976 0.0051248022 0.006971481 -0.007058508 -0.0018766096
0.0056898603 -0.004933622 0.0011475992 -0.005287377 -0.00059994304 -0.0010293158 -0.021344824 0.0035043298
0.0027322231 -0.00048230318 -0.0044670454 0.01181306 -0.024603372 -0.010346173 0.018099964 -0.0055002966
0.031957217 -0.007684598 -0.011687329 -0.0044355127 0.0029208267 -0.006557168 0.009712901 -0.02508703
0.013093471 -0.004027025 0.028538829 -0.0049814167 0.0022283478 0.0033753787 0.013391073 -0.031854756
0.017421523 0.01087504 -0.0018128129 0.0016533845 -0.023378374 -0.011370568 -0.0071664657 -0.013417248
0.0155510325 -0.015001102 0.025556564 0.0074159848 0.0010934593 -0.005155601 -0.01573667 -0.008586396
0.006025966 -0.008507807 0.025328211 -0.002838239 -0.0020113632 -0.004040449 0.07382505 -0.0215581
0.0062349713 -0.0022637183 -0.0074892663 0.0045984183 -0.00028361857 -0.0036561077 -0.0070345867 -0.00530781
-0.011544323 -0.08181378 -0.0015547177 -0.015717478 0.031926014 -0.011496512 0.025412483 0.011126599
0.032375164 -0.0039583202 -0.0060388125 -1.504497e-05 -0.011375581 0.019277658 -0.023877436 0.0013050896
0.007053753 -0.019278478 0.018443702 -0.013626293 0.03169263 0.0061744815 -0.019457659 -0.00936707
-0.0012731876 -0.0067642294 -0.011386369 -0.01605887 -0.0057708197 -0.012716718 0.008005961 -0.019185938
-0.0037922973 0.009314434 -0.0133495685 -0.04076392 -0.038306642 -0.005624452 -0.013352524 0.0012616084
0.0021271205 -0.002964599 -0.015227182 -0.018196212 -0.023522038 -0.012486721 -0.0051463265 0.010249715
0.007776711 -0.0063467263 -0.0072549265 -0.008177837 0.014479402 0.014768088 0.0055476176 0.03023179
0.00056668697 -0.010877916 0.014098328 -0.0046445164 -0.00087862444 0.0053385696 -0.02189596 0.0032460045
-0.003522812 -0.023423167 0.008383222 0.040395644 -0.009685819 0.017101435 -0.002441876 0.0010620451
-0.020450162 -0.0003908226 0.0064618555 0.0034209862 0.0016933195 -0.0004260755 -0.014464551 0.017432595
0.009696472 0.0121460855 0.018799575 0.0109647745 0.004113048 0.014411783 0.0036041997 0.022444995
-0.010886677 0.0029656324 0.0028422107 0.0028618812 0.0031174533 -0.014627137 -0.0054080966 -0.002582643
-0.012958541 -0.0027137245 -0.009230881 -0.009888254 -0.013831274 -0.004742348 0.019378722 -0.0009872476
-0.011158843 0.021843737 -6.6418645e-05 -0.0062102973 0.010587694 0.0063222973 0.038286008 0.0071366313
0.0137158865 -0.008816642 0.013641284 0.00058502244 0.0023021686 -0.010161986 -0.0046373033 0.03721331
0.011830857 -0.015074273 0.008058044 0.013779594 0.011324665 0.00014165785 0.010165173 -0.0097643975
-0.030803137 -0.00952794 -0.00039665797 -0.009440951 -0.015342021 -0.0471493 -0.005532124 -0.011746093
0.0014791453 -0.000244629 0.003034135 0.0018672484 0.009480203 0.009489945 0.0018895951 -0.011582074

action_model._continuous_distribution.mu.bias f4 [2]
00000000: e504 743d 3232 b03c
0.05957498 0.02150831
